app/src/main/assets/semg1 (2).tflite (tflite, 6420 bytes, 7 tensors)

sequential_9/conv1d_18/BiasAdd/ReadVariableOp/resource f4 [8]
0.5063998 0.12072999 0.6578329 0.65547526 0.7728929 -0.67509454 -0.17036867 0.0
00000000: 6ba3 013f 4941 f73d bd67 283f 3acd 273f
00000010: 4fdc 453f ffd2 2cbf 2075 2ebe 0000 0000

sequential_9/conv1d_19/BiasAdd/ReadVariableOp/resource f4 [8]
0.27806965 0.110009015 0.77375174 -0.28942063 -0.06302856 -0.36860615 -0.12997879 0.87950605
00000000: 255f 8e3e 684c e13d 9814 463f f12e 94be
00000010: 1e15 81bd f2b9 bcbe 2919 05be 4f27 613f

sequential_9/dense_9/BiasAdd/ReadVariableOp/resource f4 [8]
0.18948072 0.73222375 -0.01731306 -0.5673824 -0.0858082 -0.0922907 0.080828294 -0.012052601
00000000: 3c07 423e 0473 3b3f 1ed4 8dbc f93f 11bf
00000010: 36bc afbd e802 bdbd 4e89 a53d 4678 45bc

sequential_9/dense_9/MatMul f4 [8, 64]
-0.8019425 -0.27797943 -0.056128692 0.08814519 -0.24224435 0.014170991 0.20041606 -0.06517735
-0.12513916 -0.19530773 -0.55127066 -0.1913933 0.035965383 -0.13275243 0.22110593 0.095440224
-0.025034778 0.113609105 0.14301072 0.22758058 0.15199393 -0.31063357 -0.025432825 -0.31660712
0.32921338 0.19638783 -0.43313223 -0.5811008 0.211847 0.4114218 0.060148895 -0.36341745
0.04197731 -0.25285855 -0.5153709 0.36709648 0.035401106 0.25802037 -0.22815135 -0.13353032
-0.5115734 0.14617252 0.06260295 0.06214189 0.17783907 0.26798537 -0.124834 -0.41025677
-0.018480787 -0.18372269 -0.22714394 -0.06097197 0.0921039 -0.1153847 -0.14123821 -0.52005523
-0.22400317 -0.0853931 -0.004270693 0.28865254 0.12452188 -0.049760345 0.2553842 -0.39020646
-0.071666196 -0.02723232 0.0333707 0.15108638 -0.18093455 -0.3577506 0.12421161 -0.017009735
0.29715595 -0.25882953 -0.17022689 -0.069114886 0.17529288 -0.4127059 0.004196495 0.0644418
-0.31255758 -0.22533268 0.32122344 0.042322963 0.10378364 0.013913342 0.21095446 -0.43784466
0.07619485 -0.13773844 -0.061066184 -0.17816037 0.2596779 -0.16417171 -0.20896196 -0.27252185
-0.09087724 0.07085359 0.15026051 -0.22133668 0.08330676 0.006304276 0.21163958 0.09201594
0.030920211 0.24066085 -0.22566073 -0.34018603 0.23451543 -0.27194685 0.2501616 0.4605302
-0.6974668 -0.10996239 0.65633214 -0.5672242 -0.24934252 -0.84408504 0.07671788 0.13041759
0.33983654 -0.7908078 0.7097774 -0.059896454 0.23745376 -0.14900504 0.25146097 1.115147
-0.61461717 -0.27284285 -0.20815465 -0.41736668 -0.12859482 0.21896799 -0.020673454 0.19216481
-0.20407008 0.00073864736 0.1836179 -0.16146079 0.08541012 -0.014612796 -0.18447372 0.08957598
0.3504438 0.24156243 0.28521854 0.1834281 0.05055508 -0.32120678 -0.20024177 0.29340434
0.12649389 -0.21044075 -0.5890244 0.28120968 0.0109864175 -0.24504317 -0.006100625 -0.29130834
0.07729575 0.063969046 -0.6320484 -0.18212011 -0.069889694 -0.22561389 -0.08421497 -0.206309
-0.04424058 -0.094139054 -0.20176889 0.062036026 0.07261327 0.13386784 0.28483355 -0.5048737
-0.43775773 -0.1413036 -0.25782183 0.29701942 -0.15205091 -0.13515663 -0.017387476 -0.6557318
0.050541583 -0.10128933 0.053888984 0.2094201 -0.010346323 0.19932161 -0.27356434 -0.37805972
0.06933675 0.09871259 0.050841212 -0.08143945 -0.10042111 -0.33555728 -0.06909607 0.0024321561
-0.35069212 0.15929128 -0.14537479 -0.097989306 0.14151001 0.071288675 0.07969445 0.08292962
-0.0073135314 -0.07343772 -0.13738498 0.03371792 -0.13124214 0.16522372 -0.019501567 -0.38714725
0.22465807 -0.18949977 -0.4181825 -0.11238317 -0.20221432 0.30243617 0.27549857 -0.45315295
0.017455505 0.22385031 0.28794605 -0.24396206 0.009570658 0.2858872 0.1404717 0.08392242
-0.092107 -0.0017070174 -0.0137110315 -0.09506525 -0.15278742 -0.021962205 -0.16358848 0.265151
0.3519074 -0.07069577 -0.1158308 0.5722378 -0.15173754 -0.63815767 0.24387771 0.08524268
0.28208444 -0.59428453 -0.4489502 -0.35604617 0.25571936 -0.31869182 0.21723849 -0.23186989
00000000: 1b4c 4dbf 5253 8ebe 33e7 65bd 7785 b43d
00000010: e70e 78be 722d 683c de39 4d3e b47b 85bd
00000020: 7b24 00be c0fe 47be 1320 0dbf 9bfc 43be
00000030: 7050 133d 41f0 07be 9869 623e 2a76 c33d
00000040: bc15 cdbc e4ab e83d 6771 123e e20a 693e
00000050: 4ca4 1b3e 5d0b 9fbe 8058 d0bc 541a a2be
00000060: a88e a83e e419 493e 82c3 ddbe 06c3 14bf
00000070: 6cee 583e e1a5 d23e b05e 763d da11 babe
00000080: 66f0 2b3d ad76 81be 59ef 03bf 12f4 bb3e
00000090: c000 113d 3f1b 843e 82a0 69be 2cbc 08be
000000a0: 79f6 02bf 40ae 153e fa35 803d 7f88 7e3d
000000b0: 721b 363e 6135 893e f8a8 ffbd 2d0d d2be
000000c0: 0565 97bc cd21 3cbe 6c98 68be bfbd 79bd
000000d0: f8a0 bc3d d04e ecbd c0a0 10be 5722 05bf
000000e0: 1661 65be 94e2 aebd 2bf1 8bbb 44ca 933e
000000f0: 5405 ff3d 81d1 4bbd b8c1 823e 24c9 c7be
00000100: bac5 92bd 5016 dfbc b7af 083d 63b6 1a3e
00000110: e846 39be 162b b7be a862 fe3d 0058 8bbc
00000120: d324 983e 4e85 84be f54f 2ebe 1b8c 8dbd
00000130: fa7f 333e 304e d3be c082 893b 10fa 833d
00000140: 8c07 a0be 9cbd 66be 6677 a43e d85a 2d3d
00000150: 848c d43d c9f4 633c 7204 583e 2d2d e0be
00000160: 0c0c 9c3d 4e0b 0dbe 8920 7abd ac6f 36be
00000170: 80f4 843e a11c 28be 20fa 55be fc87 8bbe
00000180: d91d babd b01b 913d e4dd 193e 15a6 62be
00000190: bc9c aa3d 1a94 ce3b 0cb8 583e da72 bc3d
000001a0: 624c fd3c cc6f 763e 9b13 67be dd2c aebe
000001b0: d024 703e 9e3c 8bbe 2e15 803e 9dca eb3e
000001c0: 2f8d 32bf f633 e1bd 6205 283f 9b35 11bf
000001d0: a553 7fbe f515 58bf 441e 9d3d 308c 053e
000001e0: 0eff ad3e 6172 4abf f9b3 353f fc55 75bd
000001f0: 1427 733e c794 18be 7ebf 803e 23bd 8e3f
00000200: 8d57 1dbf 0fb2 8bbe 7e26 55be 16b1 d5be
00000210: 5cae 03be 2539 603e 605b a9bc dac6 443e
00000220: bff7 50be c9a1 413a 5506 3c3e fa55 25be
00000230: 80eb ae3d 826a 6fbc aee6 3cbe 9d73 b73d
00000240: 5f6d b33e 245c 773e 2a08 923e 93d4 3b3e
00000250: d812 4f3d 3775 a4be 2e0c 4dbe 1839 963e
00000260: 9d87 013e c87d 57be 4eca 16bf b7fa 8f3e
00000270: 6000 343c 99ec 7abe c0e7 c7bb 5e26 95be
00000280: 3c4d 9e3d 3402 833d edcd 21bf b27d 3abe
00000290: 5422 8fbd 5407 67be e678 acbd ab42 53be
000002a0: 9c35 35bd facb c0bd 819c 4ebe 7d19 7e3d
000002b0: 44b6 943d a714 093e b4d5 913e 673f 01bf
000002c0: c821 e0be e4b1 10be 3901 84be ee12 983e
000002d0: 3cb3 1bbe 8066 0abe 2e70 8ebc 0ade 27bf
000002e0: b104 4f3d c870 cfbd b2ba 5c3d 3972 563e
000002f0: a083 29bc f71a 4c3e a010 8cbe 0b91 c1be
00000300: 6d00 8e3d d429 ca3d e03e 503d bac9 a6bd
00000310: 95a9 cdbd 2ace abbe 3e82 8dbd cf64 1f3b
00000320: eb8d b3be 411d 233e 21dd 14be 9eae c8bd
00000330: 00e8 103e ccff 913d d836 a33d 01d7 a93d
00000340: 59a6 efbb 8466 96bd a6ae 0cbe cd1b 0a3d
00000350: 5764 06be 6830 293e c0c1 9fbc 2a38 c6be
00000360: c40c 663e 3a0c 42be 041c d6be 2629 e6bd
00000370: 4511 4fbe ead8 9a3e 260e 8d3e aa03 e8be
00000380: d9fe 8e3c 0439 653e aa6d 933e 31d1 79be
00000390: 40ce 1c3c cf5f 923e d0d7 0f3e 85df ab3d
000003a0: 98a2 bcbd 00be dfba 3ca4 60bc 92b1 c2bd
000003b0: 4e74 1cbe 15ea b3bc bd83 27be dfc1 873e
000003c0: 352d b43e f2c8 90bd b338 edbd 2d7e 123f
000003d0: 1661 1bbe 4d5e 23bf 14bb 793e b793 ae3d
000003e0: 5f6d 903e 0823 18bf cddc e5be af4b b6be
000003f0: a6ed 823e 932b a3be c473 5e3e 4d6f 6dbe

sequential_9/conv1d_18/conv1d f4 [8, 1, 3, 1]
-0.021184882 0.12785204 0.1850917 -0.44825527 0.12983803 0.30824035 0.3760037 0.055306714
-0.034823295 0.41776803 0.14602672 -0.18568385 0.4948447 -0.352268 -0.22777732 0.04538586
0.43014908 0.05241273 0.059194807 -0.1464961 0.21887305 -0.26456037 -0.022612065 -0.10597718
00000000: eb8b adbc a5eb 023e ae88 3d3e b781 e5be
00000010: 43f4 043e aed1 9d3e 8f83 c03e 4b89 623d
00000020: dfa2 0ebd b1e5 d53e 0788 153e e823 3ebe
00000030: 495c fd3e 795c b4be 753e 69be 86e6 393d
00000040: 803c dc3e bbae 563d 4176 723d 1303 16be
00000050: 4220 603e 7574 87be f03c b9bc 900a d9bd

sequential_9/conv1d_19/conv1d f4 [8]
0.0 0.0 0.0 0.0 0.0 0.0 0.0 0.0
00000000: 0000 0000 0000 0000 0000 0000 0000 0000
00000010: 0000 0000 0000 0000 0000 0000 0000 0000

sequential_9/conv1d_19/conv1d1 f4 [8, 1, 3, 8]
0.06888789 -0.060250536 0.3364489 0.22642043 0.124763556 -0.38218528 -0.041201573 -0.188638
-0.40025795 0.3372515 0.05449134 -0.36407128 -0.41689366 0.0420062 -0.06997054 0.12566942
-0.110672124 0.30947977 -0.14448214 -0.08990898 0.040673994 -0.070091784 0.23761645 -0.2227906
-0.08120335 0.27695182 -0.26387474 -0.09647821 -0.096296385 0.05908454 -0.14746355 -0.24174808
0.09859355 -0.12646781 -0.19983338 0.2401637 -0.12329738 0.21356963 -0.27934292 0.2839562
-0.29197872 0.07611411 0.103415646 -0.3895877 -0.12758315 -0.43419632 -0.20753177 -0.2548636
-0.16145635 -0.40068775 0.29612312 0.36065772 -0.41655675 -0.15577716 -0.44757983 0.32657644
0.2577496 -0.45529395 0.3489194 -0.024581451 0.37059373 -0.13780516 0.21220419 -0.21027602
-0.16400275 -0.13176194 -0.25617987 0.008878608 -0.16655147 0.17035055 -0.3199009 -0.12031938
-0.1848516 0.27209342 0.058068063 0.21873052 -0.01625698 0.29886866 -0.29364923 -0.23630524
-0.33124837 -0.43691343 0.08729621 0.25140196 0.17973027 0.14779134 0.08193885 0.13438389
0.18448639 -0.064560026 -0.24088506 -0.20312376 -0.62555784 0.08682212 0.042582083 -0.29145405
-0.010056645 0.07892579 -0.27836955 -0.24974772 0.03138396 0.29085192 -0.14498052 -0.2788116
-0.36725378 -0.35632896 0.026409566 -0.41179973 -0.022121102 -0.28577706 -0.15735029 -0.12666434
0.010156127 -0.17633115 -0.2815507 -0.16598018 -0.16803366 0.10893092 0.05644375 0.09459412
0.05636448 0.042144824 -0.26847464 -0.06057844 -0.24687025 -0.09876027 0.03348222 -0.23836884
-0.039077643 0.5255917 0.056449886 -0.10639398 -0.20403908 0.18580142 0.119687125 -0.0464229
-0.2156857 0.08689325 0.0916096 0.08699293 0.4207186 -0.015471979 -0.1651448 0.11869371
-0.16758479 -0.2889826 -0.018828634 -0.36150247 0.06452413 -0.26032084 -0.04914024 -0.12545127
-0.4218903 -0.13776633 -0.40351605 -0.20505928 -0.31843233 0.10454404 -0.22967225 0.07487631
-0.3380638 -0.252587 -0.46235758 0.056532152 -0.25155225 0.13932487 -0.08641855 -0.290534
-0.04093653 -0.02203224 0.21598376 0.16523121 0.2411315 -0.35424474 0.1360461 0.09538606
0.32965973 -0.3995363 -0.03682712 0.09628596 0.15418923 -0.2401336 -0.22007312 -0.26124674
-0.23269534 -0.54876983 -0.2321506 0.07681208 0.43926182 -0.5177784 -0.09317853 -0.10281891
00000000: 1815 8d3d 44c9 76bd 0843 ac3e c2da 673e
00000010: 0984 ff3d caad c3be fbc2 28bd 522a 41be
00000020: 9cee ccbe 3bac ac3e 5032 5f3d 8d67 babe
00000030: 1673 d5be b10e 2c3d b74c 8fbd 7caf 003e
00000040: 11a8 e2bd 2274 9e3e 20f3 13be 3322 b8bd
00000050: c699 263d 488c 8fbd ba51 733e 3823 64be
00000060: f14d a6bd a1cc 8d3e 971a 87be 5e96 c5bd
00000070: 0a37 c5bd a102 723d af00 17be cf8c 77be
00000080: 6aeb c93d c780 01be 1fa1 4cbe 79ed 753e
00000090: 5683 fcbd ffb1 5a3e 0906 8fbe b562 913e
000000a0: 3c7e 95be b7e1 9b3d 95cb d33d 0a78 c7be
000000b0: 28a5 02be fb4e debe 3583 54be 7b7d 82be
000000c0: d054 25be f226 cdbe 739d 973e 21a8 b83e
000000d0: ed46 d5be 0c84 1fbe 2f29 e5be 0735 a73e
000000e0: c1f7 833e 4a1c e9be 90a5 b23e 0a5f c9bc
000000f0: 76be bd3e cc1c 0dbe 0e4c 593e 9952 57be
00000100: 56f0 27be 9aec 06be 022a 83be 9577 113c
00000110: 788c 2abe 6070 2e3e 0dca a3be 026a f6bd
00000120: bd49 3dbe d44f 8b3e c7d8 6d3d e5fa 5f3e
00000130: 5c2d 85bc 5005 993e 3159 96be 00fa 71be
00000140: 6399 a9be 1eb3 dfbe 5bc8 b23d c2b7 803e
00000150: 360b 383e 9d56 173e 8ecf a73d ee9b 093e
00000160: 00ea 3c3e 0c38 84bd 93aa 76be adff 4fbe
00000170: 8f24 20bf cccf b13d 8d6a 2e3d 7739 95be
00000180: a0c4 24bc d8a3 a13d 7486 8ebe debd 7fbe
00000190: 788c 003d 8bea 943e c675 14be 65c0 8ebe
000001a0: b008 bcbe c070 b6be e058 d83c 6ad7 d2be
000001b0: 5037 b5bc 5f51 92be 6f20 21be 4cb4 01be
000001c0: e265 263c 2790 34be 6a27 90be b5f6 29be
000001d0: 0411 2cbe 2d17 df3d 9031 673d 90ba c13d
000001e0: 71de 663d 0da0 2c3d 8275 89be 1921 78bd
000001f0: 8ecb 7cbe d342 cabd a724 093d f616 74be
00000200: e10f 20bd 2d8d 063f ff37 673d 16e5 d9bd
00000210: 9fef 50be ba42 3e3e 861e f53d f025 3ebd
00000220: b6dc 5cbe 17f5 b13d d09d bb3d 5929 b23d
00000230: 6e68 d73e 2f7e 7dbc b81b 29be b015 f33d
00000240: 599b 2bbe 87f5 93be 823e 9abc da16 b9be
00000250: 3a25 843d c648 85be 4747 49bd 4c76 00be
00000260: 0102 d8be 9e12 0dbe a899 cebe 0ffb 51be
00000270: 9009 a3be 301b d63d 342f 6bbe c058 993d
00000280: b316 adbe 1553 81be 22ba ecbe 428e 673d
00000290: 75cb 80be 2eab 0e3e 35fc b0bd dfc0 94be
000002a0: 10ad 27bd f57c b4bc d92a 5d3e 5f32 293e
000002b0: 2deb 763e 915f b5be ab4f 0b3e c459 c33d
000002c0: 29c9 a83e 0690 ccbe 09d8 16bd 9331 c53d
000002d0: c8e3 1d3e 95e5 75be d95a 61be 22c2 85be
000002e0: b047 6ebe 2e7c 0cbf e3b8 6dbe a74f 9d3d
000002f0: ede6 e03e 208d 04bf 63d4 bebd b892 d2bd
